__________________________________________________________________________________________________
Layer (type)                    Output Shape         Param #     Connected to                     
==================================================================================================
input_1 (InputLayer)            (None, 600, 960, 3)  0                                            
__________________________________________________________________________________________________
Conv1_pad (ZeroPadding2D)       (None, 601, 961, 3)  0           input_1[0][0]                    
__________________________________________________________________________________________________
Conv1 (Conv2D)                  (None, 300, 480, 32) 864         Conv1_pad[0][0]                  
__________________________________________________________________________________________________
bn_Conv1 (BatchNormalization)   (None, 300, 480, 32) 128         Conv1[0][0]                      
__________________________________________________________________________________________________
Conv1_relu (ReLU)               (None, 300, 480, 32) 0           bn_Conv1[0][0]                   
__________________________________________________________________________________________________
expanded_conv_depthwise (Depthw (None, 300, 480, 32) 288         Conv1_relu[0][0]                 
__________________________________________________________________________________________________
expanded_conv_depthwise_BN (Bat (None, 300, 480, 32) 128         expanded_conv_depthwise[0][0]    
__________________________________________________________________________________________________
expanded_conv_depthwise_relu (R (None, 300, 480, 32) 0           expanded_conv_depthwise_BN[0][0] 
__________________________________________________________________________________________________
expanded_conv_project (Conv2D)  (None, 300, 480, 16) 512         expanded_conv_depthwise_relu[0][0
__________________________________________________________________________________________________
expanded_conv_project_BN (Batch (None, 300, 480, 16) 64          expanded_conv_project[0][0]      
__________________________________________________________________________________________________
block_1_expand (Conv2D)         (None, 300, 480, 96) 1536        expanded_conv_project_BN[0][0]   
__________________________________________________________________________________________________
block_1_expand_BN (BatchNormali (None, 300, 480, 96) 384         block_1_expand[0][0]             
__________________________________________________________________________________________________
block_1_expand_relu (ReLU)      (None, 300, 480, 96) 0           block_1_expand_BN[0][0]          
__________________________________________________________________________________________________
block_1_pad (ZeroPadding2D)     (None, 301, 481, 96) 0           block_1_expand_relu[0][0]        
__________________________________________________________________________________________________
block_1_depthwise (DepthwiseCon (None, 150, 240, 96) 864         block_1_pad[0][0]                
__________________________________________________________________________________________________
block_1_depthwise_BN (BatchNorm (None, 150, 240, 96) 384         block_1_depthwise[0][0]          
__________________________________________________________________________________________________
block_1_depthwise_relu (ReLU)   (None, 150, 240, 96) 0           block_1_depthwise_BN[0][0]       
__________________________________________________________________________________________________
block_1_project (Conv2D)        (None, 150, 240, 24) 2304        block_1_depthwise_relu[0][0]     
__________________________________________________________________________________________________
block_1_project_BN (BatchNormal (None, 150, 240, 24) 96          block_1_project[0][0]            
__________________________________________________________________________________________________
block_2_expand (Conv2D)         (None, 150, 240, 144 3456        block_1_project_BN[0][0]         
__________________________________________________________________________________________________
block_2_expand_BN (BatchNormali (None, 150, 240, 144 576         block_2_expand[0][0]             
…
block_3_expand_BN (BatchNormali (None, 150, 240, 144 576         block_3_expand[0][0]             
__________________________________________________________________________________________________
block_3_expand_relu (ReLU)      (None, 150, 240, 144 0           block_3_expand_BN[0][0]          
__________________________________________________________________________________________________
block_3_pad (ZeroPadding2D)     (None, 151, 241, 144 0           block_3_expand_relu[0][0]        
__________________________________________________________________________________________________
block_3_depthwise (DepthwiseCon (None, 75, 120, 144) 1296        block_3_pad[0][0]                
__________________________________________________________________________________________________
block_3_depthwise_BN (BatchNorm (None, 75, 120, 144) 576         block_3_depthwise[0][0]          
__________________________________________________________________________________________________
block_3_depthwise_relu (ReLU)   (None, 75, 120, 144) 0           block_3_depthwise_BN[0][0]       
__________________________________________________________________________________________________
block_3_project (Conv2D)        (None, 75, 120, 32)  4608        block_3_depthwise_relu[0][0]     
__________________________________________________________________________________________________
block_3_project_BN (BatchNormal (None, 75, 120, 32)  128         block_3_project[0][0]            
__________________________________________________________________________________________________
block_4_expand (Conv2D)         (None, 75, 120, 192) 6144        block_3_project_BN[0][0]         
__________________________________________________________________________________________________
block_4_expand_BN (BatchNormali (None, 75, 120, 192) 768         block_4_expand[0][0]             
__________________________________________________________________________________________________
block_4_expand_relu (ReLU)      (None, 75, 120, 192) 0           block_4_expand_BN[0][0]          
__________________________________________________________________________________________________
block_4_depthwise (DepthwiseCon (None, 75, 120, 192) 1728        block_4_expand_relu[0][0]        
__________________________________________________________________________________________________
block_4_depthwise_BN (BatchNorm (None, 75, 120, 192) 768         block_4_depthwise[0][0]          
__________________________________________________________________________________________________
block_4_depthwise_relu (ReLU)   (None, 75, 120, 192) 0           block_4_depthwise_BN[0][0]       
__________________________________________________________________________________________________
block_4_project (Conv2D)        (None, 75, 120, 32)  6144        block_4_depthwise_relu[0][0]     
__________________________________________________________________________________________________
block_4_project_BN (BatchNormal (None, 75, 120, 32)  128         block_4_project[0][0]            
__________________________________________________________________________________________________
block_4_add (Add)               (None, 75, 120, 32)  0           block_3_project_BN[0][0]         
                                                                 block_4_project_BN[0][0]         
__________________________________________________________________________________________________
block_5_expand (Conv2D)         (None, 75, 120, 192) 6144        block_4_add[0][0]                
__________________________________________________________________________________________________
block_5_expand_BN (BatchNormali (None, 75, 120, 192) 768         block_5_expand[0][0]             
__________________________________________________________________________________________________
block_5_expand_relu (ReLU)      (None, 75, 120, 192) 0           block_5_expand_BN[0][0]          
__________________________________________________________________________________________________
block_5_depthwise (DepthwiseCon (None, 75, 120, 192) 1728        block_5_expand_relu[0][0]        
__________________________________________________________________________________________________
block_5_depthwise_BN (BatchNorm (None, 75, 120, 192) 768         block_5_depthwise[0][0]          
__________________________________________________________________________________________________
block_5_depthwise_relu (ReLU)   (None, 75, 120, 192) 0           block_5_depthwise_BN[0][0]       
__________________________________________________________________________________________________
block_5_project (Conv2D)        (None, 75, 120, 32)  6144        block_5_depthwise_relu[0][0]     
__________________________________________________________________________________________________
block_5_project_BN (BatchNormal (None, 75, 120, 32)  128         block_5_project[0][0]            
__________________________________________________________________________________________________
block_5_add (Add)               (None, 75, 120, 32)  0           block_4_add[0][0]                
                                                                 block_5_project_BN[0][0]         
__________________________________________________________________________________________________
block_6_expand (Conv2D)         (None, 75, 120, 192) 6144        block_5_add[0][0]                
__________________________________________________________________________________________________
block_6_expand_BN (BatchNormali (None, 75, 120, 192) 768         block_6_expand[0][0]             
__________________________________________________________________________________________________
block_6_expand_relu (ReLU)      (None, 75, 120, 192) 0           block_6_expand_BN[0][0]          
__________________________________________________________________________________________________
block_6_pad (ZeroPadding2D)     (None, 76, 121, 192) 0           block_6_expand_relu[0][0]        
__________________________________________________________________________________________________
block_6_depthwise (DepthwiseCon (None, 37, 60, 192)  1728        block_6_pad[0][0]                
__________________________________________________________________________________________________
block_6_depthwise_BN (BatchNorm (None, 37, 60, 192)  768         block_6_depthwise[0][0]          
__________________________________________________________________________________________________
block_6_depthwise_relu (ReLU)   (None, 37, 60, 192)  0           block_6_depthwise_BN[0][0]       
__________________________________________________________________________________________________
block_6_project (Conv2D)        (None, 37, 60, 64)   12288       block_6_depthwise_relu[0][0]     
__________________________________________________________________________________________________
block_6_project_BN (BatchNormal (None, 37, 60, 64)   256         block_6_project[0][0]            
__________________________________________________________________________________________________
block_7_expand (Conv2D)         (None, 37, 60, 384)  24576       block_6_project_BN[0][0]         
__________________________________________________________________________________________________
block_7_expand_BN (BatchNormali (None, 37, 60, 384)  1536        block_7_expand[0][0]             
__________________________________________________________________________________________________
block_7_expand_relu (ReLU)      (None, 37, 60, 384)  0           block_7_expand_BN[0][0]          
__________________________________________________________________________________________________
block_7_depthwise (DepthwiseCon (None, 37, 60, 384)  3456        block_7_expand_relu[0][0]        
__________________________________________________________________________________________________
block_7_depthwise_BN (BatchNorm (None, 37, 60, 384)  1536        block_7_depthwise[0][0]          
__________________________________________________________________________________________________
block_7_depthwise_relu (ReLU)   (None, 37, 60, 384)  0           block_7_depthwise_BN[0][0]       
__________________________________________________________________________________________________
block_7_project (Conv2D)        (None, 37, 60, 64)   24576       block_7_depthwise_relu[0][0]     
__________________________________________________________________________________________________
block_7_project_BN (BatchNormal (None, 37, 60, 64)   256         block_7_project[0][0]            
__________________________________________________________________________________________________
block_7_add (Add)               (None, 37, 60, 64)   0           block_6_project_BN[0][0]         
                                                                 block_7_project_BN[0][0]         
__________________________________________________________________________________________________
block_8_expand (Conv2D)         (None, 37, 60, 384)  24576       block_7_add[0][0]                
__________________________________________________________________________________________________
block_8_expand_BN (BatchNormali (None, 37, 60, 384)  1536        block_8_expand[0][0]             
__________________________________________________________________________________________________
block_8_expand_relu (ReLU)      (None, 37, 60, 384)  0           block_8_expand_BN[0][0]          
__________________________________________________________________________________________________
block_8_depthwise (DepthwiseCon (None, 37, 60, 384)  3456        block_8_expand_relu[0][0]        
__________________________________________________________________________________________________
block_8_depthwise_BN (BatchNorm (None, 37, 60, 384)  1536        block_8_depthwise[0][0]          
__________________________________________________________________________________________________
block_8_depthwise_relu (ReLU)   (None, 37, 60, 384)  0           block_8_depthwise_BN[0][0]       
__________________________________________________________________________________________________
block_8_project (Conv2D)        (None, 37, 60, 64)   24576       block_8_depthwise_relu[0][0]     
__________________________________________________________________________________________________
block_8_project_BN (BatchNormal (None, 37, 60, 64)   256         block_8_project[0][0]            
__________________________________________________________________________________________________
block_8_add (Add)               (None, 37, 60, 64)   0           block_7_add[0][0]                
                                                                 block_8_project_BN[0][0]         
__________________________________________________________________________________________________
block_9_expand (Conv2D)         (None, 37, 60, 384)  24576       block_8_add[0][0]                
__________________________________________________________________________________________________
block_9_expand_BN (BatchNormali (None, 37, 60, 384)  1536        block_9_expand[0][0]             
__________________________________________________________________________________________________
block_9_expand_relu (ReLU)      (None, 37, 60, 384)  0           block_9_expand_BN[0][0]          
__________________________________________________________________________________________________
block_9_depthwise (DepthwiseCon (None, 37, 60, 384)  3456        block_9_expand_relu[0][0]        
__________________________________________________________________________________________________
block_9_depthwise_BN (BatchNorm (None, 37, 60, 384)  1536        block_9_depthwise[0][0]          
__________________________________________________________________________________________________
block_9_depthwise_relu (ReLU)   (None, 37, 60, 384)  0           block_9_depthwise_BN[0][0]       
__________________________________________________________________________________________________
block_9_project (Conv2D)        (None, 37, 60, 64)   24576       block_9_depthwise_relu[0][0]     
__________________________________________________________________________________________________
block_9_project_BN (BatchNormal (None, 37, 60, 64)   256         block_9_project[0][0]            
__________________________________________________________________________________________________
block_9_add (Add)               (None, 37, 60, 64)   0           block_8_add[0][0]                
                                                                 block_9_project_BN[0][0]         
__________________________________________________________________________________________________
net_vlad_layer_1 (NetVLADLayer) (None, 1024)         2064        block_9_add[0][0]                
==================================================================================================
Total params: 250,832
Trainable params: 241,424
Non-trainable params: 9,408
__________________________________________________________________________________________________
