Load model_h5_fname:  models.keras//modelarch_and_weights.h5
_________________________________________________________________
Layer (type)                 Output Shape              Param #   
=================================================================
input_1 (InputLayer)         (None, 480, 752, 3)       0         
_________________________________________________________________
conv1_pad (ZeroPadding2D)    (None, 481, 753, 3)       0         
_________________________________________________________________
conv1 (Conv2D)               (None, 240, 376, 32)      864       
_________________________________________________________________
conv1_bn (BatchNormalization (None, 240, 376, 32)      128       
_________________________________________________________________
conv1_relu (ReLU)            (None, 240, 376, 32)      0         
_________________________________________________________________
conv_dw_1 (DepthwiseConv2D)  (None, 240, 376, 32)      288       
_________________________________________________________________
conv_dw_1_bn (BatchNormaliza (None, 240, 376, 32)      128       
_________________________________________________________________
conv_dw_1_relu (ReLU)        (None, 240, 376, 32)      0         
_________________________________________________________________
conv_pw_1 (Conv2D)           (None, 240, 376, 64)      2048      
_________________________________________________________________
conv_pw_1_bn (BatchNormaliza (None, 240, 376, 64)      256       
_________________________________________________________________
conv_pw_1_relu (ReLU)        (None, 240, 376, 64)      0         
_________________________________________________________________
conv_pad_2 (ZeroPadding2D)   (None, 241, 377, 64)      0         
_________________________________________________________________
conv_dw_2 (DepthwiseConv2D)  (None, 120, 188, 64)      576       
_________________________________________________________________
conv_dw_2_bn (BatchNormaliza (None, 120, 188, 64)      256       
_________________________________________________________________
conv_dw_2_relu (ReLU)        (None, 120, 188, 64)      0         
_________________________________________________________________
conv_pw_2 (Conv2D)           (None, 120, 188, 128)     8192      
_________________________________________________________________
conv_pw_2_bn (BatchNormaliza (None, 120, 188, 128)     512       
_________________________________________________________________
conv_pw_2_relu (ReLU)        (None, 120, 188, 128)     0         
_________________________________________________________________
conv_dw_3 (DepthwiseConv2D)  (None, 120, 188, 128)     1152      
_________________________________________________________________
conv_dw_3_bn (BatchNormaliza (None, 120, 188, 128)     512       
_________________________________________________________________
conv_dw_3_relu (ReLU)        (None, 120, 188, 128)     0         
_________________________________________________________________
conv_pw_3 (Conv2D)           (None, 120, 188, 128)     16384     
_________________________________________________________________
conv_pw_3_bn (BatchNormaliza (None, 120, 188, 128)     512       
_________________________________________________________________
conv_pw_3_relu (ReLU)        (None, 120, 188, 128)     0         
_________________________________________________________________
conv_pad_4 (ZeroPadding2D)   (None, 121, 189, 128)     0         
_________________________________________________________________
conv_dw_4 (DepthwiseConv2D)  (None, 60, 94, 128)       1152      
_________________________________________________________________
conv_dw_4_bn (BatchNormaliza (None, 60, 94, 128)       512       
_________________________________________________________________
conv_dw_4_relu (ReLU)        (None, 60, 94, 128)       0         
_________________________________________________________________
conv_pw_4 (Conv2D)           (None, 60, 94, 256)       32768     
_________________________________________________________________
conv_pw_4_bn (BatchNormaliza (None, 60, 94, 256)       1024      
_________________________________________________________________
conv_pw_4_relu (ReLU)        (None, 60, 94, 256)       0         
_________________________________________________________________
conv_dw_5 (DepthwiseConv2D)  (None, 60, 94, 256)       2304      
_________________________________________________________________
conv_dw_5_bn (BatchNormaliza (None, 60, 94, 256)       1024      
_________________________________________________________________
conv_dw_5_relu (ReLU)        (None, 60, 94, 256)       0         
_________________________________________________________________
conv_pw_5 (Conv2D)           (None, 60, 94, 256)       65536     
_________________________________________________________________
conv_pw_5_bn (BatchNormaliza (None, 60, 94, 256)       1024      
_________________________________________________________________
conv_pw_5_relu (ReLU)        (None, 60, 94, 256)       0         
_________________________________________________________________
conv_pad_6 (ZeroPadding2D)   (None, 61, 95, 256)       0         
_________________________________________________________________
conv_dw_6 (DepthwiseConv2D)  (None, 30, 47, 256)       2304      
_________________________________________________________________
conv_dw_6_bn (BatchNormaliza (None, 30, 47, 256)       1024      
_________________________________________________________________
conv_dw_6_relu (ReLU)        (None, 30, 47, 256)       0         
_________________________________________________________________
conv_pw_6 (Conv2D)           (None, 30, 47, 512)       131072    
_________________________________________________________________
conv_pw_6_bn (BatchNormaliza (None, 30, 47, 512)       2048      
_________________________________________________________________
conv_pw_6_relu (ReLU)        (None, 30, 47, 512)       0         
_________________________________________________________________
conv_dw_7 (DepthwiseConv2D)  (None, 30, 47, 512)       4608      
_________________________________________________________________
conv_dw_7_bn (BatchNormaliza (None, 30, 47, 512)       2048      
_________________________________________________________________
conv_dw_7_relu (ReLU)        (None, 30, 47, 512)       0         
_________________________________________________________________
conv_pw_7 (Conv2D)           (None, 30, 47, 512)       262144    
_________________________________________________________________
conv_pw_7_bn (BatchNormaliza (None, 30, 47, 512)       2048      
_________________________________________________________________
conv_pw_7_relu (ReLU)        (None, 30, 47, 512)       0         
_________________________________________________________________
net_vlad_layer_1 (NetVLADLay (None, 8192)              16400     
=================================================================
Total params: 560,848
Trainable params: 554,320
Non-trainable params: 6,528
_________________________________________________________________
Write  output_model.pbtxt
Write  output_model.pb
		cd models.keras/ ; convert-to-uff output_model.pb ; cd -
